{"config": {"name": "model_2", "layers": [{"name": "input_1", "config": {"name": "input_1", "batch_input_shape": [null, 224, 224, 1], "sparse": false, "dtype": "float32"}, "class_name": "InputLayer", "inbound_nodes": []}, {"name": "zero_padding2d_1", "config": {"name": "zero_padding2d_1", "data_format": "channels_last", "padding": [[3, 3], [3, 3]], "trainable": true}, "class_name": "ZeroPadding2D", "inbound_nodes": [[["input_1", 0, 0, {}]]]}, {"name": "conv1", "config": {"bias_regularizer": null, "kernel_regularizer": null, "use_bias": true, "kernel_initializer": {"config": {"distribution": "uniform", "mode": "fan_avg", "scale": 1.0, "seed": null}, "class_name": "VarianceScaling"}, "kernel_constraint": null, "padding": "valid", "filters": 64, "bias_constraint": null, "kernel_size": [7, 7], "bias_initializer": {"config": {}, "class_name": "Zeros"}, "strides": [2, 2], "name": "conv1", "activation": "linear", "data_format": "channels_last", "activity_regularizer": null, "dilation_rate": [1, 1], "trainable": true}, "class_name": "Conv2D", "inbound_nodes": [[["zero_padding2d_1", 0, 0, {}]]]}, {"name": "bn_conv1", "config": {"beta_regularizer": null, "moving_variance_initializer": {"config": {}, "class_name": "Ones"}, "scale": true, "gamma_regularizer": null, "momentum": 0.99, "trainable": true, "beta_constraint": null, "name": "bn_conv1", "gamma_initializer": {"config": {}, "class_name": "Ones"}, "axis": -1, "moving_mean_initializer": {"config": {}, "class_name": "Zeros"}, "epsilon": 0.001, "center": true, "beta_initializer": {"config": {}, "class_name": "Zeros"}, "gamma_constraint": null}, "class_name": "BatchNormalization", "inbound_nodes": [[["conv1", 0, 0, {}]]]}, {"name": "activation_1", "config": {"name": "activation_1", "activation": "relu", "trainable": true}, "class_name": "Activation", "inbound_nodes": [[["bn_conv1", 0, 0, {}]]]}, {"name": "max_pooling2d_1", "config": {"pool_size": [3, 3], "trainable": true, "name": "max_pooling2d_1", "data_format": "channels_last", "padding": "valid", "strides": [2, 2]}, "class_name": "MaxPooling2D", "inbound_nodes": [[["activation_1", 0, 0, {}]]]}, {"name": "res2a_branch2a", "config": {"bias_regularizer": null, "kernel_regularizer": null, "use_bias": true, "kernel_initializer": {"config": {"distribution": "uniform", "mode": "fan_avg", "scale": 1.0, "seed": null}, "class_name": "VarianceScaling"}, "kernel_constraint": null, "padding": "valid", "filters": 64, "bias_constraint": null, "kernel_size": [1, 1], "bias_initializer": {"config": {}, "class_name": "Zeros"}, "strides": [1, 1], "name": "res2a_branch2a", "activation": "linear", "data_format": "channels_last", "activity_regularizer": null, "dilation_rate": [1, 1], "trainable": true}, "class_name": "Conv2D", "inbound_nodes": [[["max_pooling2d_1", 0, 0, {}]]]}, {"name": "bn2a_branch2a", "config": {"beta_regularizer": null, "moving_variance_initializer": {"config": {}, "class_name": "Ones"}, "scale": true, "gamma_regularizer": null, "momentum": 0.99, "trainable": true, "beta_constraint": null, "name": "bn2a_branch2a", "gamma_initializer": {"config": {}, "class_name": "Ones"}, "axis": -1, "moving_mean_initializer": {"config": {}, "class_name": "Zeros"}, "epsilon": 0.001, "center": true, "beta_initializer": {"config": {}, "class_name": "Zeros"}, "gamma_constraint": null}, "class_name": "BatchNormalization", "inbound_nodes": [[["res2a_branch2a", 0, 0, {}]]]}, {"name": "activation_2", "config": {"name": "activation_2", "activation": "relu", "trainable": true}, "class_name": "Activation", "inbound_nodes": [[["bn2a_branch2a", 0, 0, {}]]]}, {"name": "res2a_branch2b", "config": {"bias_regularizer": null, "kernel_regularizer": null, "use_bias": true, "kernel_initializer": {"config": {"distribution": "uniform", "mode": "fan_avg", "scale": 1.0, "seed": null}, "class_name": "VarianceScaling"}, "kernel_constraint": null, "padding": "same", "filters": 64, "bias_constraint": null, "kernel_size": [3, 3], "bias_initializer": {"config": {}, "class_name": "Zeros"}, "strides": [1, 1], "name": "res2a_branch2b", "activation": "linear", "data_format": "channels_last", "activity_regularizer": null, "dilation_rate": [1, 1], "trainable": true}, "class_name": "Conv2D", "inbound_nodes": [[["activation_2", 0, 0, {}]]]}, {"name": "bn2a_branch2b", "config": {"beta_regularizer": null, "moving_variance_initializer": {"config": {}, "class_name": "Ones"}, "scale": true, "gamma_regularizer": null, "momentum": 0.99, "trainable": true, "beta_constraint": null, "name": "bn2a_branch2b", "gamma_initializer": {"config": {}, "class_name": "Ones"}, "axis": -1, "moving_mean_initializer": {"config": {}, "class_name": "Zeros"}, "epsilon": 0.001, "center": true, "beta_initializer": {"config": {}, "class_name": "Zeros"}, "gamma_constraint": null}, "class_name": "BatchNormalization", "inbound_nodes": [[["res2a_branch2b", 0, 0, {}]]]}, {"name": "activation_3", "config": {"name": "activation_3", "activation": "relu", "trainable": true}, "class_name": "Activation", "inbound_nodes": [[["bn2a_branch2b", 0, 0, {}]]]}, {"name": "res2a_branch2c", "config": {"bias_regularizer": null, "kernel_regularizer": null, "use_bias": true, "kernel_initializer": {"config": {"distribution": "uniform", "mode": "fan_avg", "scale": 1.0, "seed": null}, "class_name": "VarianceScaling"}, "kernel_constraint": null, "padding": "valid", "filters": 256, "bias_constraint": null, "kernel_size": [1, 1], "bias_initializer": {"config": {}, "class_name": "Zeros"}, "strides": [1, 1], "name": "res2a_branch2c", "activation": "linear", "data_format": "channels_last", "activity_regularizer": null, "dilation_rate": [1, 1], "trainable": true}, "class_name": "Conv2D", "inbound_nodes": [[["activation_3", 0, 0, {}]]]}, {"name": "res2a_branch1", "config": {"bias_regularizer": null, "kernel_regularizer": null, "use_bias": true, "kernel_initializer": {"config": {"distribution": "uniform", "mode": "fan_avg", "scale": 1.0, "seed": null}, "class_name": "VarianceScaling"}, "kernel_constraint": null, "padding": "valid", "filters": 256, "bias_constraint": null, "kernel_size": [1, 1], "bias_initializer": {"config": {}, "class_name": "Zeros"}, "strides": [1, 1], "name": "res2a_branch1", "activation": "linear", "data_format": "channels_last", "activity_regularizer": null, "dilation_rate": [1, 1], "trainable": true}, "class_name": "Conv2D", "inbound_nodes": [[["max_pooling2d_1", 0, 0, {}]]]}, {"name": "bn2a_branch2c", "config": {"beta_regularizer": null, "moving_variance_initializer": {"config": {}, "class_name": "Ones"}, "scale": true, "gamma_regularizer": null, "momentum": 0.99, "trainable": true, "beta_constraint": null, "name": "bn2a_branch2c", "gamma_initializer": {"config": {}, "class_name": "Ones"}, "axis": -1, "moving_mean_initializer": {"config": {}, "class_name": "Zeros"}, "epsilon": 0.001, "center": true, "beta_initializer": {"config": {}, "class_name": "Zeros"}, "gamma_constraint": null}, "class_name": "BatchNormalization", "inbound_nodes": [[["res2a_branch2c", 0, 0, {}]]]}, {"name": "bn2a_branch1", "config": {"beta_regularizer": null, "moving_variance_initializer": {"config": {}, "class_name": "Ones"}, "scale": true, "gamma_regularizer": null, "momentum": 0.99, "trainable": true, "beta_constraint": null, "name": "bn2a_branch1", "gamma_initializer": {"config": {}, "class_name": "Ones"}, "axis": -1, "moving_mean_initializer": {"config": {}, "class_name": "Zeros"}, "epsilon": 0.001, "center": true, "beta_initializer": {"config": {}, "class_name": "Zeros"}, "gamma_constraint": null}, "class_name": "BatchNormalization", "inbound_nodes": [[["res2a_branch1", 0, 0, {}]]]}, {"name": "merge_1", "config": {"name": "merge_1", "output_shape": null, "mode": "sum", "mode_type": "raw", "output_shape_type": "raw", "output_mask_type": "raw", "concat_axis": -1, "dot_axes": -1, "output_mask": null, "arguments": {}}, "class_name": "Merge", "inbound_nodes": [[["bn2a_branch2c", 0, 0, {"mask": [null, null]}], ["bn2a_branch1", 0, 0, {"mask": [null, null]}]]]}, {"name": "activation_4", "config": {"name": "activation_4", "activation": "relu", "trainable": true}, "class_name": "Activation", "inbound_nodes": [[["merge_1", 0, 0, {}]]]}, {"name": "res2b_branch2a", "config": {"bias_regularizer": null, "kernel_regularizer": null, "use_bias": true, "kernel_initializer": {"config": {"distribution": "uniform", "mode": "fan_avg", "scale": 1.0, "seed": null}, "class_name": "VarianceScaling"}, "kernel_constraint": null, "padding": "valid", "filters": 64, "bias_constraint": null, "kernel_size": [1, 1], "bias_initializer": {"config": {}, "class_name": "Zeros"}, "strides": [1, 1], "name": "res2b_branch2a", "activation": "linear", "data_format": "channels_last", "activity_regularizer": null, "dilation_rate": [1, 1], "trainable": true}, "class_name": "Conv2D", "inbound_nodes": [[["activation_4", 0, 0, {}]]]}, {"name": "bn2b_branch2a", "config": {"beta_regularizer": null, "moving_variance_initializer": {"config": {}, "class_name": "Ones"}, "scale": true, "gamma_regularizer": null, "momentum": 0.99, "trainable": true, "beta_constraint": null, "name": "bn2b_branch2a", "gamma_initializer": {"config": {}, "class_name": "Ones"}, "axis": -1, "moving_mean_initializer": {"config": {}, "class_name": "Zeros"}, "epsilon": 0.001, "center": true, "beta_initializer": {"config": {}, "class_name": "Zeros"}, "gamma_constraint": null}, "class_name": "BatchNormalization", "inbound_nodes": [[["res2b_branch2a", 0, 0, {}]]]}, {"name": "activation_5", "config": {"name": "activation_5", "activation": "relu", "trainable": true}, "class_name": "Activation", "inbound_nodes": [[["bn2b_branch2a", 0, 0, {}]]]}, {"name": "res2b_branch2b", "config": {"bias_regularizer": null, "kernel_regularizer": null, "use_bias": true, "kernel_initializer": {"config": {"distribution": "uniform", "mode": "fan_avg", "scale": 1.0, "seed": null}, "class_name": "VarianceScaling"}, "kernel_constraint": null, "padding": "same", "filters": 64, "bias_constraint": null, "kernel_size": [3, 3], "bias_initializer": {"config": {}, "class_name": "Zeros"}, "strides": [1, 1], "name": "res2b_branch2b", "activation": "linear", "data_format": "channels_last", "activity_regularizer": null, "dilation_rate": [1, 1], "trainable": true}, "class_name": "Conv2D", "inbound_nodes": [[["activation_5", 0, 0, {}]]]}, {"name": "bn2b_branch2b", "config": {"beta_regularizer": null, "moving_variance_initializer": {"config": {}, "class_name": "Ones"}, "scale": true, "gamma_regularizer": null, "momentum": 0.99, "trainable": true, "beta_constraint": null, "name": "bn2b_branch2b", "gamma_initializer": {"config": {}, "class_name": "Ones"}, "axis": -1, "moving_mean_initializer": {"config": {}, "class_name": "Zeros"}, "epsilon": 0.001, "center": true, "beta_initializer": {"config": {}, "class_name": "Zeros"}, "gamma_constraint": null}, "class_name": "BatchNormalization", "inbound_nodes": [[["res2b_branch2b", 0, 0, {}]]]}, {"name": "activation_6", "config": {"name": "activation_6", "activation": "relu", "trainable": true}, "class_name": "Activation", "inbound_nodes": [[["bn2b_branch2b", 0, 0, {}]]]}, {"name": "res2b_branch2c", "config": {"bias_regularizer": null, "kernel_regularizer": null, "use_bias": true, "kernel_initializer": {"config": {"distribution": "uniform", "mode": "fan_avg", "scale": 1.0, "seed": null}, "class_name": "VarianceScaling"}, "kernel_constraint": null, "padding": "valid", "filters": 256, "bias_constraint": null, "kernel_size": [1, 1], "bias_initializer": {"config": {}, "class_name": "Zeros"}, "strides": [1, 1], "name": "res2b_branch2c", "activation": "linear", "data_format": "channels_last", "activity_regularizer": null, "dilation_rate": [1, 1], "trainable": true}, "class_name": "Conv2D", "inbound_nodes": [[["activation_6", 0, 0, {}]]]}, {"name": "bn2b_branch2c", "config": {"beta_regularizer": null, "moving_variance_initializer": {"config": {}, "class_name": "Ones"}, "scale": true, "gamma_regularizer": null, "momentum": 0.99, "trainable": true, "beta_constraint": null, "name": "bn2b_branch2c", "gamma_initializer": {"config": {}, "class_name": "Ones"}, "axis": -1, "moving_mean_initializer": {"config": {}, "class_name": "Zeros"}, "epsilon": 0.001, "center": true, "beta_initializer": {"config": {}, "class_name": "Zeros"}, "gamma_constraint": null}, "class_name": "BatchNormalization", "inbound_nodes": [[["res2b_branch2c", 0, 0, {}]]]}, {"name": "merge_2", "config": {"name": "merge_2", "output_shape": null, "mode": "sum", "mode_type": "raw", "output_shape_type": "raw", "output_mask_type": "raw", "concat_axis": -1, "dot_axes": -1, "output_mask": null, "arguments": {}}, "class_name": "Merge", "inbound_nodes": [[["bn2b_branch2c", 0, 0, {"mask": [null, null]}], ["activation_4", 0, 0, {"mask": [null, null]}]]]}, {"name": "activation_7", "config": {"name": "activation_7", "activation": "relu", "trainable": true}, "class_name": "Activation", "inbound_nodes": [[["merge_2", 0, 0, {}]]]}, {"name": "res2c_branch2a", "config": {"bias_regularizer": null, "kernel_regularizer": null, "use_bias": true, "kernel_initializer": {"config": {"distribution": "uniform", "mode": "fan_avg", "scale": 1.0, "seed": null}, "class_name": "VarianceScaling"}, "kernel_constraint": null, "padding": "valid", "filters": 64, "bias_constraint": null, "kernel_size": [1, 1], "bias_initializer": {"config": {}, "class_name": "Zeros"}, "strides": [1, 1], "name": "res2c_branch2a", "activation": "linear", "data_format": "channels_last", "activity_regularizer": null, "dilation_rate": [1, 1], "trainable": true}, "class_name": "Conv2D", "inbound_nodes": [[["activation_7", 0, 0, {}]]]}, {"name": "bn2c_branch2a", "config": {"beta_regularizer": null, "moving_variance_initializer": {"config": {}, "class_name": "Ones"}, "scale": true, "gamma_regularizer": null, "momentum": 0.99, "trainable": true, "beta_constraint": null, "name": "bn2c_branch2a", "gamma_initializer": {"config": {}, "class_name": "Ones"}, "axis": -1, "moving_mean_initializer": {"config": {}, "class_name": "Zeros"}, "epsilon": 0.001, "center": true, "beta_initializer": {"config": {}, "class_name": "Zeros"}, "gamma_constraint": null}, "class_name": "BatchNormalization", "inbound_nodes": [[["res2c_branch2a", 0, 0, {}]]]}, {"name": "activation_8", "config": {"name": "activation_8", "activation": "relu", "trainable": true}, "class_name": "Activation", "inbound_nodes": [[["bn2c_branch2a", 0, 0, {}]]]}, {"name": "res2c_branch2b", "config": {"bias_regularizer": null, "kernel_regularizer": null, "use_bias": true, "kernel_initializer": {"config": {"distribution": "uniform", "mode": "fan_avg", "scale": 1.0, "seed": null}, "class_name": "VarianceScaling"}, "kernel_constraint": null, "padding": "same", "filters": 64, "bias_constraint": null, "kernel_size": [3, 3], "bias_initializer": {"config": {}, "class_name": "Zeros"}, "strides": [1, 1], "name": "res2c_branch2b", "activation": "linear", "data_format": "channels_last", "activity_regularizer": null, "dilation_rate": [1, 1], "trainable": true}, "class_name": "Conv2D", "inbound_nodes": [[["activation_8", 0, 0, {}]]]}, {"name": "bn2c_branch2b", "config": {"beta_regularizer": null, "moving_variance_initializer": {"config": {}, "class_name": "Ones"}, "scale": true, "gamma_regularizer": null, "momentum": 0.99, "trainable": true, "beta_constraint": null, "name": "bn2c_branch2b", "gamma_initializer": {"config": {}, "class_name": "Ones"}, "axis": -1, "moving_mean_initializer": {"config": {}, "class_name": "Zeros"}, "epsilon": 0.001, "center": true, "beta_initializer": {"config": {}, "class_name": "Zeros"}, "gamma_constraint": null}, "class_name": "BatchNormalization", "inbound_nodes": [[["res2c_branch2b", 0, 0, {}]]]}, {"name": "activation_9", "config": {"name": "activation_9", "activation": "relu", "trainable": true}, "class_name": "Activation", "inbound_nodes": [[["bn2c_branch2b", 0, 0, {}]]]}, {"name": "res2c_branch2c", "config": {"bias_regularizer": null, "kernel_regularizer": null, "use_bias": true, "kernel_initializer": {"config": {"distribution": "uniform", "mode": "fan_avg", "scale": 1.0, "seed": null}, "class_name": "VarianceScaling"}, "kernel_constraint": null, "padding": "valid", "filters": 256, "bias_constraint": null, "kernel_size": [1, 1], "bias_initializer": {"config": {}, "class_name": "Zeros"}, "strides": [1, 1], "name": "res2c_branch2c", "activation": "linear", "data_format": "channels_last", "activity_regularizer": null, "dilation_rate": [1, 1], "trainable": true}, "class_name": "Conv2D", "inbound_nodes": [[["activation_9", 0, 0, {}]]]}, {"name": "bn2c_branch2c", "config": {"beta_regularizer": null, "moving_variance_initializer": {"config": {}, "class_name": "Ones"}, "scale": true, "gamma_regularizer": null, "momentum": 0.99, "trainable": true, "beta_constraint": null, "name": "bn2c_branch2c", "gamma_initializer": {"config": {}, "class_name": "Ones"}, "axis": -1, "moving_mean_initializer": {"config": {}, "class_name": "Zeros"}, "epsilon": 0.001, "center": true, "beta_initializer": {"config": {}, "class_name": "Zeros"}, "gamma_constraint": null}, "class_name": "BatchNormalization", "inbound_nodes": [[["res2c_branch2c", 0, 0, {}]]]}, {"name": "merge_3", "config": {"name": "merge_3", "output_shape": null, "mode": "sum", "mode_type": "raw", "output_shape_type": "raw", "output_mask_type": "raw", "concat_axis": -1, "dot_axes": -1, "output_mask": null, "arguments": {}}, "class_name": "Merge", "inbound_nodes": [[["bn2c_branch2c", 0, 0, {"mask": [null, null]}], ["activation_7", 0, 0, {"mask": [null, null]}]]]}, {"name": "activation_10", "config": {"name": "activation_10", "activation": "relu", "trainable": true}, "class_name": "Activation", "inbound_nodes": [[["merge_3", 0, 0, {}]]]}, {"name": "res3a_branch2a", "config": {"bias_regularizer": null, "kernel_regularizer": null, "use_bias": true, "kernel_initializer": {"config": {"distribution": "uniform", "mode": "fan_avg", "scale": 1.0, "seed": null}, "class_name": "VarianceScaling"}, "kernel_constraint": null, "padding": "valid", "filters": 128, "bias_constraint": null, "kernel_size": [1, 1], "bias_initializer": {"config": {}, "class_name": "Zeros"}, "strides": [2, 2], "name": "res3a_branch2a", "activation": "linear", "data_format": "channels_last", "activity_regularizer": null, "dilation_rate": [1, 1], "trainable": true}, "class_name": "Conv2D", "inbound_nodes": [[["activation_10", 0, 0, {}]]]}, {"name": "bn3a_branch2a", "config": {"beta_regularizer": null, "moving_variance_initializer": {"config": {}, "class_name": "Ones"}, "scale": true, "gamma_regularizer": null, "momentum": 0.99, "trainable": true, "beta_constraint": null, "name": "bn3a_branch2a", "gamma_initializer": {"config": {}, "class_name": "Ones"}, "axis": -1, "moving_mean_initializer": {"config": {}, "class_name": "Zeros"}, "epsilon": 0.001, "center": true, "beta_initializer": {"config": {}, "class_name": "Zeros"}, "gamma_constraint": null}, "class_name": "BatchNormalization", "inbound_nodes": [[["res3a_branch2a", 0, 0, {}]]]}, {"name": "activation_11", "config": {"name": "activation_11", "activation": "relu", "trainable": true}, "class_name": "Activation", "inbound_nodes": [[["bn3a_branch2a", 0, 0, {}]]]}, {"name": "res3a_branch2b", "config": {"bias_regularizer": null, "kernel_regularizer": null, "use_bias": true, "kernel_initializer": {"config": {"distribution": "uniform", "mode": "fan_avg", "scale": 1.0, "seed": null}, "class_name": "VarianceScaling"}, "kernel_constraint": null, "padding": "same", "filters": 128, "bias_constraint": null, "kernel_size": [3, 3], "bias_initializer": {"config": {}, "class_name": "Zeros"}, "strides": [1, 1], "name": "res3a_branch2b", "activation": "linear", "data_format": "channels_last", "activity_regularizer": null, "dilation_rate": [1, 1], "trainable": true}, "class_name": "Conv2D", "inbound_nodes": [[["activation_11", 0, 0, {}]]]}, {"name": "bn3a_branch2b", "config": {"beta_regularizer": null, "moving_variance_initializer": {"config": {}, "class_name": "Ones"}, "scale": true, "gamma_regularizer": null, "momentum": 0.99, "trainable": true, "beta_constraint": null, "name": "bn3a_branch2b", "gamma_initializer": {"config": {}, "class_name": "Ones"}, "axis": -1, "moving_mean_initializer": {"config": {}, "class_name": "Zeros"}, "epsilon": 0.001, "center": true, "beta_initializer": {"config": {}, "class_name": "Zeros"}, "gamma_constraint": null}, "class_name": "BatchNormalization", "inbound_nodes": [[["res3a_branch2b", 0, 0, {}]]]}, {"name": "activation_12", "config": {"name": "activation_12", "activation": "relu", "trainable": true}, "class_name": "Activation", "inbound_nodes": [[["bn3a_branch2b", 0, 0, {}]]]}, {"name": "res3a_branch2c", "config": {"bias_regularizer": null, "kernel_regularizer": null, "use_bias": true, "kernel_initializer": {"config": {"distribution": "uniform", "mode": "fan_avg", "scale": 1.0, "seed": null}, "class_name": "VarianceScaling"}, "kernel_constraint": null, "padding": "valid", "filters": 512, "bias_constraint": null, "kernel_size": [1, 1], "bias_initializer": {"config": {}, "class_name": "Zeros"}, "strides": [1, 1], "name": "res3a_branch2c", "activation": "linear", "data_format": "channels_last", "activity_regularizer": null, "dilation_rate": [1, 1], "trainable": true}, "class_name": "Conv2D", "inbound_nodes": [[["activation_12", 0, 0, {}]]]}, {"name": "res3a_branch1", "config": {"bias_regularizer": null, "kernel_regularizer": null, "use_bias": true, "kernel_initializer": {"config": {"distribution": "uniform", "mode": "fan_avg", "scale": 1.0, "seed": null}, "class_name": "VarianceScaling"}, "kernel_constraint": null, "padding": "valid", "filters": 512, "bias_constraint": null, "kernel_size": [1, 1], "bias_initializer": {"config": {}, "class_name": "Zeros"}, "strides": [2, 2], "name": "res3a_branch1", "activation": "linear", "data_format": "channels_last", "activity_regularizer": null, "dilation_rate": [1, 1], "trainable": true}, "class_name": "Conv2D", "inbound_nodes": [[["activation_10", 0, 0, {}]]]}, {"name": "bn3a_branch2c", "config": {"beta_regularizer": null, "moving_variance_initializer": {"config": {}, "class_name": "Ones"}, "scale": true, "gamma_regularizer": null, "momentum": 0.99, "trainable": true, "beta_constraint": null, "name": "bn3a_branch2c", "gamma_initializer": {"config": {}, "class_name": "Ones"}, "axis": -1, "moving_mean_initializer": {"config": {}, "class_name": "Zeros"}, "epsilon": 0.001, "center": true, "beta_initializer": {"config": {}, "class_name": "Zeros"}, "gamma_constraint": null}, "class_name": "BatchNormalization", "inbound_nodes": [[["res3a_branch2c", 0, 0, {}]]]}, {"name": "bn3a_branch1", "config": {"beta_regularizer": null, "moving_variance_initializer": {"config": {}, "class_name": "Ones"}, "scale": true, "gamma_regularizer": null, "momentum": 0.99, "trainable": true, "beta_constraint": null, "name": "bn3a_branch1", "gamma_initializer": {"config": {}, "class_name": "Ones"}, "axis": -1, "moving_mean_initializer": {"config": {}, "class_name": "Zeros"}, "epsilon": 0.001, "center": true, "beta_initializer": {"config": {}, "class_name": "Zeros"}, "gamma_constraint": null}, "class_name": "BatchNormalization", "inbound_nodes": [[["res3a_branch1", 0, 0, {}]]]}, {"name": "merge_4", "config": {"name": "merge_4", "output_shape": null, "mode": "sum", "mode_type": "raw", "output_shape_type": "raw", "output_mask_type": "raw", "concat_axis": -1, "dot_axes": -1, "output_mask": null, "arguments": {}}, "class_name": "Merge", "inbound_nodes": [[["bn3a_branch2c", 0, 0, {"mask": [null, null]}], ["bn3a_branch1", 0, 0, {"mask": [null, null]}]]]}, {"name": "activation_13", "config": {"name": "activation_13", "activation": "relu", "trainable": true}, "class_name": "Activation", "inbound_nodes": [[["merge_4", 0, 0, {}]]]}, {"name": "res3b_branch2a", "config": {"bias_regularizer": null, "kernel_regularizer": null, "use_bias": true, "kernel_initializer": {"config": {"distribution": "uniform", "mode": "fan_avg", "scale": 1.0, "seed": null}, "class_name": "VarianceScaling"}, "kernel_constraint": null, "padding": "valid", "filters": 128, "bias_constraint": null, "kernel_size": [1, 1], "bias_initializer": {"config": {}, "class_name": "Zeros"}, "strides": [1, 1], "name": "res3b_branch2a", "activation": "linear", "data_format": "channels_last", "activity_regularizer": null, "dilation_rate": [1, 1], "trainable": true}, "class_name": "Conv2D", "inbound_nodes": [[["activation_13", 0, 0, {}]]]}, {"name": "bn3b_branch2a", "config": {"beta_regularizer": null, "moving_variance_initializer": {"config": {}, "class_name": "Ones"}, "scale": true, "gamma_regularizer": null, "momentum": 0.99, "trainable": true, "beta_constraint": null, "name": "bn3b_branch2a", "gamma_initializer": {"config": {}, "class_name": "Ones"}, "axis": -1, "moving_mean_initializer": {"config": {}, "class_name": "Zeros"}, "epsilon": 0.001, "center": true, "beta_initializer": {"config": {}, "class_name": "Zeros"}, "gamma_constraint": null}, "class_name": "BatchNormalization", "inbound_nodes": [[["res3b_branch2a", 0, 0, {}]]]}, {"name": "activation_14", "config": {"name": "activation_14", "activation": "relu", "trainable": true}, "class_name": "Activation", "inbound_nodes": [[["bn3b_branch2a", 0, 0, {}]]]}, {"name": "res3b_branch2b", "config": {"bias_regularizer": null, "kernel_regularizer": null, "use_bias": true, "kernel_initializer": {"config": {"distribution": "uniform", "mode": "fan_avg", "scale": 1.0, "seed": null}, "class_name": "VarianceScaling"}, "kernel_constraint": null, "padding": "same", "filters": 128, "bias_constraint": null, "kernel_size": [3, 3], "bias_initializer": {"config": {}, "class_name": "Zeros"}, "strides": [1, 1], "name": "res3b_branch2b", "activation": "linear", "data_format": "channels_last", "activity_regularizer": null, "dilation_rate": [1, 1], "trainable": true}, "class_name": "Conv2D", "inbound_nodes": [[["activation_14", 0, 0, {}]]]}, {"name": "bn3b_branch2b", "config": {"beta_regularizer": null, "moving_variance_initializer": {"config": {}, "class_name": "Ones"}, "scale": true, "gamma_regularizer": null, "momentum": 0.99, "trainable": true, "beta_constraint": null, "name": "bn3b_branch2b", "gamma_initializer": {"config": {}, "class_name": "Ones"}, "axis": -1, "moving_mean_initializer": {"config": {}, "class_name": "Zeros"}, "epsilon": 0.001, "center": true, "beta_initializer": {"config": {}, "class_name": "Zeros"}, "gamma_constraint": null}, "class_name": "BatchNormalization", "inbound_nodes": [[["res3b_branch2b", 0, 0, {}]]]}, {"name": "activation_15", "config": {"name": "activation_15", "activation": "relu", "trainable": true}, "class_name": "Activation", "inbound_nodes": [[["bn3b_branch2b", 0, 0, {}]]]}, {"name": "res3b_branch2c", "config": {"bias_regularizer": null, "kernel_regularizer": null, "use_bias": true, "kernel_initializer": {"config": {"distribution": "uniform", "mode": "fan_avg", "scale": 1.0, "seed": null}, "class_name": "VarianceScaling"}, "kernel_constraint": null, "padding": "valid", "filters": 512, "bias_constraint": null, "kernel_size": [1, 1], "bias_initializer": {"config": {}, "class_name": "Zeros"}, "strides": [1, 1], "name": "res3b_branch2c", "activation": "linear", "data_format": "channels_last", "activity_regularizer": null, "dilation_rate": [1, 1], "trainable": true}, "class_name": "Conv2D", "inbound_nodes": [[["activation_15", 0, 0, {}]]]}, {"name": "bn3b_branch2c", "config": {"beta_regularizer": null, "moving_variance_initializer": {"config": {}, "class_name": "Ones"}, "scale": true, "gamma_regularizer": null, "momentum": 0.99, "trainable": true, "beta_constraint": null, "name": "bn3b_branch2c", "gamma_initializer": {"config": {}, "class_name": "Ones"}, "axis": -1, "moving_mean_initializer": {"config": {}, "class_name": "Zeros"}, "epsilon": 0.001, "center": true, "beta_initializer": {"config": {}, "class_name": "Zeros"}, "gamma_constraint": null}, "class_name": "BatchNormalization", "inbound_nodes": [[["res3b_branch2c", 0, 0, {}]]]}, {"name": "merge_5", "config": {"name": "merge_5", "output_shape": null, "mode": "sum", "mode_type": "raw", "output_shape_type": "raw", "output_mask_type": "raw", "concat_axis": -1, "dot_axes": -1, "output_mask": null, "arguments": {}}, "class_name": "Merge", "inbound_nodes": [[["bn3b_branch2c", 0, 0, {"mask": [null, null]}], ["activation_13", 0, 0, {"mask": [null, null]}]]]}, {"name": "activation_16", "config": {"name": "activation_16", "activation": "relu", "trainable": true}, "class_name": "Activation", "inbound_nodes": [[["merge_5", 0, 0, {}]]]}, {"name": "res3c_branch2a", "config": {"bias_regularizer": null, "kernel_regularizer": null, "use_bias": true, "kernel_initializer": {"config": {"distribution": "uniform", "mode": "fan_avg", "scale": 1.0, "seed": null}, "class_name": "VarianceScaling"}, "kernel_constraint": null, "padding": "valid", "filters": 128, "bias_constraint": null, "kernel_size": [1, 1], "bias_initializer": {"config": {}, "class_name": "Zeros"}, "strides": [1, 1], "name": "res3c_branch2a", "activation": "linear", "data_format": "channels_last", "activity_regularizer": null, "dilation_rate": [1, 1], "trainable": true}, "class_name": "Conv2D", "inbound_nodes": [[["activation_16", 0, 0, {}]]]}, {"name": "bn3c_branch2a", "config": {"beta_regularizer": null, "moving_variance_initializer": {"config": {}, "class_name": "Ones"}, "scale": true, "gamma_regularizer": null, "momentum": 0.99, "trainable": true, "beta_constraint": null, "name": "bn3c_branch2a", "gamma_initializer": {"config": {}, "class_name": "Ones"}, "axis": -1, "moving_mean_initializer": {"config": {}, "class_name": "Zeros"}, "epsilon": 0.001, "center": true, "beta_initializer": {"config": {}, "class_name": "Zeros"}, "gamma_constraint": null}, "class_name": "BatchNormalization", "inbound_nodes": [[["res3c_branch2a", 0, 0, {}]]]}, {"name": "activation_17", "config": {"name": "activation_17", "activation": "relu", "trainable": true}, "class_name": "Activation", "inbound_nodes": [[["bn3c_branch2a", 0, 0, {}]]]}, {"name": "res3c_branch2b", "config": {"bias_regularizer": null, "kernel_regularizer": null, "use_bias": true, "kernel_initializer": {"config": {"distribution": "uniform", "mode": "fan_avg", "scale": 1.0, "seed": null}, "class_name": "VarianceScaling"}, "kernel_constraint": null, "padding": "same", "filters": 128, "bias_constraint": null, "kernel_size": [3, 3], "bias_initializer": {"config": {}, "class_name": "Zeros"}, "strides": [1, 1], "name": "res3c_branch2b", "activation": "linear", "data_format": "channels_last", "activity_regularizer": null, "dilation_rate": [1, 1], "trainable": true}, "class_name": "Conv2D", "inbound_nodes": [[["activation_17", 0, 0, {}]]]}, {"name": "bn3c_branch2b", "config": {"beta_regularizer": null, "moving_variance_initializer": {"config": {}, "class_name": "Ones"}, "scale": true, "gamma_regularizer": null, "momentum": 0.99, "trainable": true, "beta_constraint": null, "name": "bn3c_branch2b", "gamma_initializer": {"config": {}, "class_name": "Ones"}, "axis": -1, "moving_mean_initializer": {"config": {}, "class_name": "Zeros"}, "epsilon": 0.001, "center": true, "beta_initializer": {"config": {}, "class_name": "Zeros"}, "gamma_constraint": null}, "class_name": "BatchNormalization", "inbound_nodes": [[["res3c_branch2b", 0, 0, {}]]]}, {"name": "activation_18", "config": {"name": "activation_18", "activation": "relu", "trainable": true}, "class_name": "Activation", "inbound_nodes": [[["bn3c_branch2b", 0, 0, {}]]]}, {"name": "res3c_branch2c", "config": {"bias_regularizer": null, "kernel_regularizer": null, "use_bias": true, "kernel_initializer": {"config": {"distribution": "uniform", "mode": "fan_avg", "scale": 1.0, "seed": null}, "class_name": "VarianceScaling"}, "kernel_constraint": null, "padding": "valid", "filters": 512, "bias_constraint": null, "kernel_size": [1, 1], "bias_initializer": {"config": {}, "class_name": "Zeros"}, "strides": [1, 1], "name": "res3c_branch2c", "activation": "linear", "data_format": "channels_last", "activity_regularizer": null, "dilation_rate": [1, 1], "trainable": true}, "class_name": "Conv2D", "inbound_nodes": [[["activation_18", 0, 0, {}]]]}, {"name": "bn3c_branch2c", "config": {"beta_regularizer": null, "moving_variance_initializer": {"config": {}, "class_name": "Ones"}, "scale": true, "gamma_regularizer": null, "momentum": 0.99, "trainable": true, "beta_constraint": null, "name": "bn3c_branch2c", "gamma_initializer": {"config": {}, "class_name": "Ones"}, "axis": -1, "moving_mean_initializer": {"config": {}, "class_name": "Zeros"}, "epsilon": 0.001, "center": true, "beta_initializer": {"config": {}, "class_name": "Zeros"}, "gamma_constraint": null}, "class_name": "BatchNormalization", "inbound_nodes": [[["res3c_branch2c", 0, 0, {}]]]}, {"name": "merge_6", "config": {"name": "merge_6", "output_shape": null, "mode": "sum", "mode_type": "raw", "output_shape_type": "raw", "output_mask_type": "raw", "concat_axis": -1, "dot_axes": -1, "output_mask": null, "arguments": {}}, "class_name": "Merge", "inbound_nodes": [[["bn3c_branch2c", 0, 0, {"mask": [null, null]}], ["activation_16", 0, 0, {"mask": [null, null]}]]]}, {"name": "activation_19", "config": {"name": "activation_19", "activation": "relu", "trainable": true}, "class_name": "Activation", "inbound_nodes": [[["merge_6", 0, 0, {}]]]}, {"name": "res3d_branch2a", "config": {"bias_regularizer": null, "kernel_regularizer": null, "use_bias": true, "kernel_initializer": {"config": {"distribution": "uniform", "mode": "fan_avg", "scale": 1.0, "seed": null}, "class_name": "VarianceScaling"}, "kernel_constraint": null, "padding": "valid", "filters": 128, "bias_constraint": null, "kernel_size": [1, 1], "bias_initializer": {"config": {}, "class_name": "Zeros"}, "strides": [1, 1], "name": "res3d_branch2a", "activation": "linear", "data_format": "channels_last", "activity_regularizer": null, "dilation_rate": [1, 1], "trainable": true}, "class_name": "Conv2D", "inbound_nodes": [[["activation_19", 0, 0, {}]]]}, {"name": "bn3d_branch2a", "config": {"beta_regularizer": null, "moving_variance_initializer": {"config": {}, "class_name": "Ones"}, "scale": true, "gamma_regularizer": null, "momentum": 0.99, "trainable": true, "beta_constraint": null, "name": "bn3d_branch2a", "gamma_initializer": {"config": {}, "class_name": "Ones"}, "axis": -1, "moving_mean_initializer": {"config": {}, "class_name": "Zeros"}, "epsilon": 0.001, "center": true, "beta_initializer": {"config": {}, "class_name": "Zeros"}, "gamma_constraint": null}, "class_name": "BatchNormalization", "inbound_nodes": [[["res3d_branch2a", 0, 0, {}]]]}, {"name": "activation_20", "config": {"name": "activation_20", "activation": "relu", "trainable": true}, "class_name": "Activation", "inbound_nodes": [[["bn3d_branch2a", 0, 0, {}]]]}, {"name": "res3d_branch2b", "config": {"bias_regularizer": null, "kernel_regularizer": null, "use_bias": true, "kernel_initializer": {"config": {"distribution": "uniform", "mode": "fan_avg", "scale": 1.0, "seed": null}, "class_name": "VarianceScaling"}, "kernel_constraint": null, "padding": "same", "filters": 128, "bias_constraint": null, "kernel_size": [3, 3], "bias_initializer": {"config": {}, "class_name": "Zeros"}, "strides": [1, 1], "name": "res3d_branch2b", "activation": "linear", "data_format": "channels_last", "activity_regularizer": null, "dilation_rate": [1, 1], "trainable": true}, "class_name": "Conv2D", "inbound_nodes": [[["activation_20", 0, 0, {}]]]}, {"name": "bn3d_branch2b", "config": {"beta_regularizer": null, "moving_variance_initializer": {"config": {}, "class_name": "Ones"}, "scale": true, "gamma_regularizer": null, "momentum": 0.99, "trainable": true, "beta_constraint": null, "name": "bn3d_branch2b", "gamma_initializer": {"config": {}, "class_name": "Ones"}, "axis": -1, "moving_mean_initializer": {"config": {}, "class_name": "Zeros"}, "epsilon": 0.001, "center": true, "beta_initializer": {"config": {}, "class_name": "Zeros"}, "gamma_constraint": null}, "class_name": "BatchNormalization", "inbound_nodes": [[["res3d_branch2b", 0, 0, {}]]]}, {"name": "activation_21", "config": {"name": "activation_21", "activation": "relu", "trainable": true}, "class_name": "Activation", "inbound_nodes": [[["bn3d_branch2b", 0, 0, {}]]]}, {"name": "res3d_branch2c", "config": {"bias_regularizer": null, "kernel_regularizer": null, "use_bias": true, "kernel_initializer": {"config": {"distribution": "uniform", "mode": "fan_avg", "scale": 1.0, "seed": null}, "class_name": "VarianceScaling"}, "kernel_constraint": null, "padding": "valid", "filters": 512, "bias_constraint": null, "kernel_size": [1, 1], "bias_initializer": {"config": {}, "class_name": "Zeros"}, "strides": [1, 1], "name": "res3d_branch2c", "activation": "linear", "data_format": "channels_last", "activity_regularizer": null, "dilation_rate": [1, 1], "trainable": true}, "class_name": "Conv2D", "inbound_nodes": [[["activation_21", 0, 0, {}]]]}, {"name": "bn3d_branch2c", "config": {"beta_regularizer": null, "moving_variance_initializer": {"config": {}, "class_name": "Ones"}, "scale": true, "gamma_regularizer": null, "momentum": 0.99, "trainable": true, "beta_constraint": null, "name": "bn3d_branch2c", "gamma_initializer": {"config": {}, "class_name": "Ones"}, "axis": -1, "moving_mean_initializer": {"config": {}, "class_name": "Zeros"}, "epsilon": 0.001, "center": true, "beta_initializer": {"config": {}, "class_name": "Zeros"}, "gamma_constraint": null}, "class_name": "BatchNormalization", "inbound_nodes": [[["res3d_branch2c", 0, 0, {}]]]}, {"name": "merge_7", "config": {"name": "merge_7", "output_shape": null, "mode": "sum", "mode_type": "raw", "output_shape_type": "raw", "output_mask_type": "raw", "concat_axis": -1, "dot_axes": -1, "output_mask": null, "arguments": {}}, "class_name": "Merge", "inbound_nodes": [[["bn3d_branch2c", 0, 0, {"mask": [null, null]}], ["activation_19", 0, 0, {"mask": [null, null]}]]]}, {"name": "activation_22", "config": {"name": "activation_22", "activation": "relu", "trainable": true}, "class_name": "Activation", "inbound_nodes": [[["merge_7", 0, 0, {}]]]}, {"name": "res4a_branch2a", "config": {"bias_regularizer": null, "kernel_regularizer": null, "use_bias": true, "kernel_initializer": {"config": {"distribution": "uniform", "mode": "fan_avg", "scale": 1.0, "seed": null}, "class_name": "VarianceScaling"}, "kernel_constraint": null, "padding": "valid", "filters": 256, "bias_constraint": null, "kernel_size": [1, 1], "bias_initializer": {"config": {}, "class_name": "Zeros"}, "strides": [2, 2], "name": "res4a_branch2a", "activation": "linear", "data_format": "channels_last", "activity_regularizer": null, "dilation_rate": [1, 1], "trainable": true}, "class_name": "Conv2D", "inbound_nodes": [[["activation_22", 0, 0, {}]]]}, {"name": "bn4a_branch2a", "config": {"beta_regularizer": null, "moving_variance_initializer": {"config": {}, "class_name": "Ones"}, "scale": true, "gamma_regularizer": null, "momentum": 0.99, "trainable": true, "beta_constraint": null, "name": "bn4a_branch2a", "gamma_initializer": {"config": {}, "class_name": "Ones"}, "axis": -1, "moving_mean_initializer": {"config": {}, "class_name": "Zeros"}, "epsilon": 0.001, "center": true, "beta_initializer": {"config": {}, "class_name": "Zeros"}, "gamma_constraint": null}, "class_name": "BatchNormalization", "inbound_nodes": [[["res4a_branch2a", 0, 0, {}]]]}, {"name": "activation_23", "config": {"name": "activation_23", "activation": "relu", "trainable": true}, "class_name": "Activation", "inbound_nodes": [[["bn4a_branch2a", 0, 0, {}]]]}, {"name": "res4a_branch2b", "config": {"bias_regularizer": null, "kernel_regularizer": null, "use_bias": true, "kernel_initializer": {"config": {"distribution": "uniform", "mode": "fan_avg", "scale": 1.0, "seed": null}, "class_name": "VarianceScaling"}, "kernel_constraint": null, "padding": "same", "filters": 256, "bias_constraint": null, "kernel_size": [3, 3], "bias_initializer": {"config": {}, "class_name": "Zeros"}, "strides": [1, 1], "name": "res4a_branch2b", "activation": "linear", "data_format": "channels_last", "activity_regularizer": null, "dilation_rate": [1, 1], "trainable": true}, "class_name": "Conv2D", "inbound_nodes": [[["activation_23", 0, 0, {}]]]}, {"name": "bn4a_branch2b", "config": {"beta_regularizer": null, "moving_variance_initializer": {"config": {}, "class_name": "Ones"}, "scale": true, "gamma_regularizer": null, "momentum": 0.99, "trainable": true, "beta_constraint": null, "name": "bn4a_branch2b", "gamma_initializer": {"config": {}, "class_name": "Ones"}, "axis": -1, "moving_mean_initializer": {"config": {}, "class_name": "Zeros"}, "epsilon": 0.001, "center": true, "beta_initializer": {"config": {}, "class_name": "Zeros"}, "gamma_constraint": null}, "class_name": "BatchNormalization", "inbound_nodes": [[["res4a_branch2b", 0, 0, {}]]]}, {"name": "activation_24", "config": {"name": "activation_24", "activation": "relu", "trainable": true}, "class_name": "Activation", "inbound_nodes": [[["bn4a_branch2b", 0, 0, {}]]]}, {"name": "res4a_branch2c", "config": {"bias_regularizer": null, "kernel_regularizer": null, "use_bias": true, "kernel_initializer": {"config": {"distribution": "uniform", "mode": "fan_avg", "scale": 1.0, "seed": null}, "class_name": "VarianceScaling"}, "kernel_constraint": null, "padding": "valid", "filters": 1024, "bias_constraint": null, "kernel_size": [1, 1], "bias_initializer": {"config": {}, "class_name": "Zeros"}, "strides": [1, 1], "name": "res4a_branch2c", "activation": "linear", "data_format": "channels_last", "activity_regularizer": null, "dilation_rate": [1, 1], "trainable": true}, "class_name": "Conv2D", "inbound_nodes": [[["activation_24", 0, 0, {}]]]}, {"name": "res4a_branch1", "config": {"bias_regularizer": null, "kernel_regularizer": null, "use_bias": true, "kernel_initializer": {"config": {"distribution": "uniform", "mode": "fan_avg", "scale": 1.0, "seed": null}, "class_name": "VarianceScaling"}, "kernel_constraint": null, "padding": "valid", "filters": 1024, "bias_constraint": null, "kernel_size": [1, 1], "bias_initializer": {"config": {}, "class_name": "Zeros"}, "strides": [2, 2], "name": "res4a_branch1", "activation": "linear", "data_format": "channels_last", "activity_regularizer": null, "dilation_rate": [1, 1], "trainable": true}, "class_name": "Conv2D", "inbound_nodes": [[["activation_22", 0, 0, {}]]]}, {"name": "bn4a_branch2c", "config": {"beta_regularizer": null, "moving_variance_initializer": {"config": {}, "class_name": "Ones"}, "scale": true, "gamma_regularizer": null, "momentum": 0.99, "trainable": true, "beta_constraint": null, "name": "bn4a_branch2c", "gamma_initializer": {"config": {}, "class_name": "Ones"}, "axis": -1, "moving_mean_initializer": {"config": {}, "class_name": "Zeros"}, "epsilon": 0.001, "center": true, "beta_initializer": {"config": {}, "class_name": "Zeros"}, "gamma_constraint": null}, "class_name": "BatchNormalization", "inbound_nodes": [[["res4a_branch2c", 0, 0, {}]]]}, {"name": "bn4a_branch1", "config": {"beta_regularizer": null, "moving_variance_initializer": {"config": {}, "class_name": "Ones"}, "scale": true, "gamma_regularizer": null, "momentum": 0.99, "trainable": true, "beta_constraint": null, "name": "bn4a_branch1", "gamma_initializer": {"config": {}, "class_name": "Ones"}, "axis": -1, "moving_mean_initializer": {"config": {}, "class_name": "Zeros"}, "epsilon": 0.001, "center": true, "beta_initializer": {"config": {}, "class_name": "Zeros"}, "gamma_constraint": null}, "class_name": "BatchNormalization", "inbound_nodes": [[["res4a_branch1", 0, 0, {}]]]}, {"name": "merge_8", "config": {"name": "merge_8", "output_shape": null, "mode": "sum", "mode_type": "raw", "output_shape_type": "raw", "output_mask_type": "raw", "concat_axis": -1, "dot_axes": -1, "output_mask": null, "arguments": {}}, "class_name": "Merge", "inbound_nodes": [[["bn4a_branch2c", 0, 0, {"mask": [null, null]}], ["bn4a_branch1", 0, 0, {"mask": [null, null]}]]]}, {"name": "activation_25", "config": {"name": "activation_25", "activation": "relu", "trainable": true}, "class_name": "Activation", "inbound_nodes": [[["merge_8", 0, 0, {}]]]}, {"name": "res4b_branch2a", "config": {"bias_regularizer": null, "kernel_regularizer": null, "use_bias": true, "kernel_initializer": {"config": {"distribution": "uniform", "mode": "fan_avg", "scale": 1.0, "seed": null}, "class_name": "VarianceScaling"}, "kernel_constraint": null, "padding": "valid", "filters": 256, "bias_constraint": null, "kernel_size": [1, 1], "bias_initializer": {"config": {}, "class_name": "Zeros"}, "strides": [1, 1], "name": "res4b_branch2a", "activation": "linear", "data_format": "channels_last", "activity_regularizer": null, "dilation_rate": [1, 1], "trainable": true}, "class_name": "Conv2D", "inbound_nodes": [[["activation_25", 0, 0, {}]]]}, {"name": "bn4b_branch2a", "config": {"beta_regularizer": null, "moving_variance_initializer": {"config": {}, "class_name": "Ones"}, "scale": true, "gamma_regularizer": null, "momentum": 0.99, "trainable": true, "beta_constraint": null, "name": "bn4b_branch2a", "gamma_initializer": {"config": {}, "class_name": "Ones"}, "axis": -1, "moving_mean_initializer": {"config": {}, "class_name": "Zeros"}, "epsilon": 0.001, "center": true, "beta_initializer": {"config": {}, "class_name": "Zeros"}, "gamma_constraint": null}, "class_name": "BatchNormalization", "inbound_nodes": [[["res4b_branch2a", 0, 0, {}]]]}, {"name": "activation_26", "config": {"name": "activation_26", "activation": "relu", "trainable": true}, "class_name": "Activation", "inbound_nodes": [[["bn4b_branch2a", 0, 0, {}]]]}, {"name": "res4b_branch2b", "config": {"bias_regularizer": null, "kernel_regularizer": null, "use_bias": true, "kernel_initializer": {"config": {"distribution": "uniform", "mode": "fan_avg", "scale": 1.0, "seed": null}, "class_name": "VarianceScaling"}, "kernel_constraint": null, "padding": "same", "filters": 256, "bias_constraint": null, "kernel_size": [3, 3], "bias_initializer": {"config": {}, "class_name": "Zeros"}, "strides": [1, 1], "name": "res4b_branch2b", "activation": "linear", "data_format": "channels_last", "activity_regularizer": null, "dilation_rate": [1, 1], "trainable": true}, "class_name": "Conv2D", "inbound_nodes": [[["activation_26", 0, 0, {}]]]}, {"name": "bn4b_branch2b", "config": {"beta_regularizer": null, "moving_variance_initializer": {"config": {}, "class_name": "Ones"}, "scale": true, "gamma_regularizer": null, "momentum": 0.99, "trainable": true, "beta_constraint": null, "name": "bn4b_branch2b", "gamma_initializer": {"config": {}, "class_name": "Ones"}, "axis": -1, "moving_mean_initializer": {"config": {}, "class_name": "Zeros"}, "epsilon": 0.001, "center": true, "beta_initializer": {"config": {}, "class_name": "Zeros"}, "gamma_constraint": null}, "class_name": "BatchNormalization", "inbound_nodes": [[["res4b_branch2b", 0, 0, {}]]]}, {"name": "activation_27", "config": {"name": "activation_27", "activation": "relu", "trainable": true}, "class_name": "Activation", "inbound_nodes": [[["bn4b_branch2b", 0, 0, {}]]]}, {"name": "res4b_branch2c", "config": {"bias_regularizer": null, "kernel_regularizer": null, "use_bias": true, "kernel_initializer": {"config": {"distribution": "uniform", "mode": "fan_avg", "scale": 1.0, "seed": null}, "class_name": "VarianceScaling"}, "kernel_constraint": null, "padding": "valid", "filters": 1024, "bias_constraint": null, "kernel_size": [1, 1], "bias_initializer": {"config": {}, "class_name": "Zeros"}, "strides": [1, 1], "name": "res4b_branch2c", "activation": "linear", "data_format": "channels_last", "activity_regularizer": null, "dilation_rate": [1, 1], "trainable": true}, "class_name": "Conv2D", "inbound_nodes": [[["activation_27", 0, 0, {}]]]}, {"name": "bn4b_branch2c", "config": {"beta_regularizer": null, "moving_variance_initializer": {"config": {}, "class_name": "Ones"}, "scale": true, "gamma_regularizer": null, "momentum": 0.99, "trainable": true, "beta_constraint": null, "name": "bn4b_branch2c", "gamma_initializer": {"config": {}, "class_name": "Ones"}, "axis": -1, "moving_mean_initializer": {"config": {}, "class_name": "Zeros"}, "epsilon": 0.001, "center": true, "beta_initializer": {"config": {}, "class_name": "Zeros"}, "gamma_constraint": null}, "class_name": "BatchNormalization", "inbound_nodes": [[["res4b_branch2c", 0, 0, {}]]]}, {"name": "merge_9", "config": {"name": "merge_9", "output_shape": null, "mode": "sum", "mode_type": "raw", "output_shape_type": "raw", "output_mask_type": "raw", "concat_axis": -1, "dot_axes": -1, "output_mask": null, "arguments": {}}, "class_name": "Merge", "inbound_nodes": [[["bn4b_branch2c", 0, 0, {"mask": [null, null]}], ["activation_25", 0, 0, {"mask": [null, null]}]]]}, {"name": "activation_28", "config": {"name": "activation_28", "activation": "relu", "trainable": true}, "class_name": "Activation", "inbound_nodes": [[["merge_9", 0, 0, {}]]]}, {"name": "res4c_branch2a", "config": {"bias_regularizer": null, "kernel_regularizer": null, "use_bias": true, "kernel_initializer": {"config": {"distribution": "uniform", "mode": "fan_avg", "scale": 1.0, "seed": null}, "class_name": "VarianceScaling"}, "kernel_constraint": null, "padding": "valid", "filters": 256, "bias_constraint": null, "kernel_size": [1, 1], "bias_initializer": {"config": {}, "class_name": "Zeros"}, "strides": [1, 1], "name": "res4c_branch2a", "activation": "linear", "data_format": "channels_last", "activity_regularizer": null, "dilation_rate": [1, 1], "trainable": true}, "class_name": "Conv2D", "inbound_nodes": [[["activation_28", 0, 0, {}]]]}, {"name": "bn4c_branch2a", "config": {"beta_regularizer": null, "moving_variance_initializer": {"config": {}, "class_name": "Ones"}, "scale": true, "gamma_regularizer": null, "momentum": 0.99, "trainable": true, "beta_constraint": null, "name": "bn4c_branch2a", "gamma_initializer": {"config": {}, "class_name": "Ones"}, "axis": -1, "moving_mean_initializer": {"config": {}, "class_name": "Zeros"}, "epsilon": 0.001, "center": true, "beta_initializer": {"config": {}, "class_name": "Zeros"}, "gamma_constraint": null}, "class_name": "BatchNormalization", "inbound_nodes": [[["res4c_branch2a", 0, 0, {}]]]}, {"name": "activation_29", "config": {"name": "activation_29", "activation": "relu", "trainable": true}, "class_name": "Activation", "inbound_nodes": [[["bn4c_branch2a", 0, 0, {}]]]}, {"name": "res4c_branch2b", "config": {"bias_regularizer": null, "kernel_regularizer": null, "use_bias": true, "kernel_initializer": {"config": {"distribution": "uniform", "mode": "fan_avg", "scale": 1.0, "seed": null}, "class_name": "VarianceScaling"}, "kernel_constraint": null, "padding": "same", "filters": 256, "bias_constraint": null, "kernel_size": [3, 3], "bias_initializer": {"config": {}, "class_name": "Zeros"}, "strides": [1, 1], "name": "res4c_branch2b", "activation": "linear", "data_format": "channels_last", "activity_regularizer": null, "dilation_rate": [1, 1], "trainable": true}, "class_name": "Conv2D", "inbound_nodes": [[["activation_29", 0, 0, {}]]]}, {"name": "bn4c_branch2b", "config": {"beta_regularizer": null, "moving_variance_initializer": {"config": {}, "class_name": "Ones"}, "scale": true, "gamma_regularizer": null, "momentum": 0.99, "trainable": true, "beta_constraint": null, "name": "bn4c_branch2b", "gamma_initializer": {"config": {}, "class_name": "Ones"}, "axis": -1, "moving_mean_initializer": {"config": {}, "class_name": "Zeros"}, "epsilon": 0.001, "center": true, "beta_initializer": {"config": {}, "class_name": "Zeros"}, "gamma_constraint": null}, "class_name": "BatchNormalization", "inbound_nodes": [[["res4c_branch2b", 0, 0, {}]]]}, {"name": "activation_30", "config": {"name": "activation_30", "activation": "relu", "trainable": true}, "class_name": "Activation", "inbound_nodes": [[["bn4c_branch2b", 0, 0, {}]]]}, {"name": "res4c_branch2c", "config": {"bias_regularizer": null, "kernel_regularizer": null, "use_bias": true, "kernel_initializer": {"config": {"distribution": "uniform", "mode": "fan_avg", "scale": 1.0, "seed": null}, "class_name": "VarianceScaling"}, "kernel_constraint": null, "padding": "valid", "filters": 1024, "bias_constraint": null, "kernel_size": [1, 1], "bias_initializer": {"config": {}, "class_name": "Zeros"}, "strides": [1, 1], "name": "res4c_branch2c", "activation": "linear", "data_format": "channels_last", "activity_regularizer": null, "dilation_rate": [1, 1], "trainable": true}, "class_name": "Conv2D", "inbound_nodes": [[["activation_30", 0, 0, {}]]]}, {"name": "bn4c_branch2c", "config": {"beta_regularizer": null, "moving_variance_initializer": {"config": {}, "class_name": "Ones"}, "scale": true, "gamma_regularizer": null, "momentum": 0.99, "trainable": true, "beta_constraint": null, "name": "bn4c_branch2c", "gamma_initializer": {"config": {}, "class_name": "Ones"}, "axis": -1, "moving_mean_initializer": {"config": {}, "class_name": "Zeros"}, "epsilon": 0.001, "center": true, "beta_initializer": {"config": {}, "class_name": "Zeros"}, "gamma_constraint": null}, "class_name": "BatchNormalization", "inbound_nodes": [[["res4c_branch2c", 0, 0, {}]]]}, {"name": "merge_10", "config": {"name": "merge_10", "output_shape": null, "mode": "sum", "mode_type": "raw", "output_shape_type": "raw", "output_mask_type": "raw", "concat_axis": -1, "dot_axes": -1, "output_mask": null, "arguments": {}}, "class_name": "Merge", "inbound_nodes": [[["bn4c_branch2c", 0, 0, {"mask": [null, null]}], ["activation_28", 0, 0, {"mask": [null, null]}]]]}, {"name": "activation_31", "config": {"name": "activation_31", "activation": "relu", "trainable": true}, "class_name": "Activation", "inbound_nodes": [[["merge_10", 0, 0, {}]]]}, {"name": "res4d_branch2a", "config": {"bias_regularizer": null, "kernel_regularizer": null, "use_bias": true, "kernel_initializer": {"config": {"distribution": "uniform", "mode": "fan_avg", "scale": 1.0, "seed": null}, "class_name": "VarianceScaling"}, "kernel_constraint": null, "padding": "valid", "filters": 256, "bias_constraint": null, "kernel_size": [1, 1], "bias_initializer": {"config": {}, "class_name": "Zeros"}, "strides": [1, 1], "name": "res4d_branch2a", "activation": "linear", "data_format": "channels_last", "activity_regularizer": null, "dilation_rate": [1, 1], "trainable": true}, "class_name": "Conv2D", "inbound_nodes": [[["activation_31", 0, 0, {}]]]}, {"name": "bn4d_branch2a", "config": {"beta_regularizer": null, "moving_variance_initializer": {"config": {}, "class_name": "Ones"}, "scale": true, "gamma_regularizer": null, "momentum": 0.99, "trainable": true, "beta_constraint": null, "name": "bn4d_branch2a", "gamma_initializer": {"config": {}, "class_name": "Ones"}, "axis": -1, "moving_mean_initializer": {"config": {}, "class_name": "Zeros"}, "epsilon": 0.001, "center": true, "beta_initializer": {"config": {}, "class_name": "Zeros"}, "gamma_constraint": null}, "class_name": "BatchNormalization", "inbound_nodes": [[["res4d_branch2a", 0, 0, {}]]]}, {"name": "activation_32", "config": {"name": "activation_32", "activation": "relu", "trainable": true}, "class_name": "Activation", "inbound_nodes": [[["bn4d_branch2a", 0, 0, {}]]]}, {"name": "res4d_branch2b", "config": {"bias_regularizer": null, "kernel_regularizer": null, "use_bias": true, "kernel_initializer": {"config": {"distribution": "uniform", "mode": "fan_avg", "scale": 1.0, "seed": null}, "class_name": "VarianceScaling"}, "kernel_constraint": null, "padding": "same", "filters": 256, "bias_constraint": null, "kernel_size": [3, 3], "bias_initializer": {"config": {}, "class_name": "Zeros"}, "strides": [1, 1], "name": "res4d_branch2b", "activation": "linear", "data_format": "channels_last", "activity_regularizer": null, "dilation_rate": [1, 1], "trainable": true}, "class_name": "Conv2D", "inbound_nodes": [[["activation_32", 0, 0, {}]]]}, {"name": "bn4d_branch2b", "config": {"beta_regularizer": null, "moving_variance_initializer": {"config": {}, "class_name": "Ones"}, "scale": true, "gamma_regularizer": null, "momentum": 0.99, "trainable": true, "beta_constraint": null, "name": "bn4d_branch2b", "gamma_initializer": {"config": {}, "class_name": "Ones"}, "axis": -1, "moving_mean_initializer": {"config": {}, "class_name": "Zeros"}, "epsilon": 0.001, "center": true, "beta_initializer": {"config": {}, "class_name": "Zeros"}, "gamma_constraint": null}, "class_name": "BatchNormalization", "inbound_nodes": [[["res4d_branch2b", 0, 0, {}]]]}, {"name": "activation_33", "config": {"name": "activation_33", "activation": "relu", "trainable": true}, "class_name": "Activation", "inbound_nodes": [[["bn4d_branch2b", 0, 0, {}]]]}, {"name": "res4d_branch2c", "config": {"bias_regularizer": null, "kernel_regularizer": null, "use_bias": true, "kernel_initializer": {"config": {"distribution": "uniform", "mode": "fan_avg", "scale": 1.0, "seed": null}, "class_name": "VarianceScaling"}, "kernel_constraint": null, "padding": "valid", "filters": 1024, "bias_constraint": null, "kernel_size": [1, 1], "bias_initializer": {"config": {}, "class_name": "Zeros"}, "strides": [1, 1], "name": "res4d_branch2c", "activation": "linear", "data_format": "channels_last", "activity_regularizer": null, "dilation_rate": [1, 1], "trainable": true}, "class_name": "Conv2D", "inbound_nodes": [[["activation_33", 0, 0, {}]]]}, {"name": "bn4d_branch2c", "config": {"beta_regularizer": null, "moving_variance_initializer": {"config": {}, "class_name": "Ones"}, "scale": true, "gamma_regularizer": null, "momentum": 0.99, "trainable": true, "beta_constraint": null, "name": "bn4d_branch2c", "gamma_initializer": {"config": {}, "class_name": "Ones"}, "axis": -1, "moving_mean_initializer": {"config": {}, "class_name": "Zeros"}, "epsilon": 0.001, "center": true, "beta_initializer": {"config": {}, "class_name": "Zeros"}, "gamma_constraint": null}, "class_name": "BatchNormalization", "inbound_nodes": [[["res4d_branch2c", 0, 0, {}]]]}, {"name": "merge_11", "config": {"name": "merge_11", "output_shape": null, "mode": "sum", "mode_type": "raw", "output_shape_type": "raw", "output_mask_type": "raw", "concat_axis": -1, "dot_axes": -1, "output_mask": null, "arguments": {}}, "class_name": "Merge", "inbound_nodes": [[["bn4d_branch2c", 0, 0, {"mask": [null, null]}], ["activation_31", 0, 0, {"mask": [null, null]}]]]}, {"name": "activation_34", "config": {"name": "activation_34", "activation": "relu", "trainable": true}, "class_name": "Activation", "inbound_nodes": [[["merge_11", 0, 0, {}]]]}, {"name": "res4e_branch2a", "config": {"bias_regularizer": null, "kernel_regularizer": null, "use_bias": true, "kernel_initializer": {"config": {"distribution": "uniform", "mode": "fan_avg", "scale": 1.0, "seed": null}, "class_name": "VarianceScaling"}, "kernel_constraint": null, "padding": "valid", "filters": 256, "bias_constraint": null, "kernel_size": [1, 1], "bias_initializer": {"config": {}, "class_name": "Zeros"}, "strides": [1, 1], "name": "res4e_branch2a", "activation": "linear", "data_format": "channels_last", "activity_regularizer": null, "dilation_rate": [1, 1], "trainable": true}, "class_name": "Conv2D", "inbound_nodes": [[["activation_34", 0, 0, {}]]]}, {"name": "bn4e_branch2a", "config": {"beta_regularizer": null, "moving_variance_initializer": {"config": {}, "class_name": "Ones"}, "scale": true, "gamma_regularizer": null, "momentum": 0.99, "trainable": true, "beta_constraint": null, "name": "bn4e_branch2a", "gamma_initializer": {"config": {}, "class_name": "Ones"}, "axis": -1, "moving_mean_initializer": {"config": {}, "class_name": "Zeros"}, "epsilon": 0.001, "center": true, "beta_initializer": {"config": {}, "class_name": "Zeros"}, "gamma_constraint": null}, "class_name": "BatchNormalization", "inbound_nodes": [[["res4e_branch2a", 0, 0, {}]]]}, {"name": "activation_35", "config": {"name": "activation_35", "activation": "relu", "trainable": true}, "class_name": "Activation", "inbound_nodes": [[["bn4e_branch2a", 0, 0, {}]]]}, {"name": "res4e_branch2b", "config": {"bias_regularizer": null, "kernel_regularizer": null, "use_bias": true, "kernel_initializer": {"config": {"distribution": "uniform", "mode": "fan_avg", "scale": 1.0, "seed": null}, "class_name": "VarianceScaling"}, "kernel_constraint": null, "padding": "same", "filters": 256, "bias_constraint": null, "kernel_size": [3, 3], "bias_initializer": {"config": {}, "class_name": "Zeros"}, "strides": [1, 1], "name": "res4e_branch2b", "activation": "linear", "data_format": "channels_last", "activity_regularizer": null, "dilation_rate": [1, 1], "trainable": true}, "class_name": "Conv2D", "inbound_nodes": [[["activation_35", 0, 0, {}]]]}, {"name": "bn4e_branch2b", "config": {"beta_regularizer": null, "moving_variance_initializer": {"config": {}, "class_name": "Ones"}, "scale": true, "gamma_regularizer": null, "momentum": 0.99, "trainable": true, "beta_constraint": null, "name": "bn4e_branch2b", "gamma_initializer": {"config": {}, "class_name": "Ones"}, "axis": -1, "moving_mean_initializer": {"config": {}, "class_name": "Zeros"}, "epsilon": 0.001, "center": true, "beta_initializer": {"config": {}, "class_name": "Zeros"}, "gamma_constraint": null}, "class_name": "BatchNormalization", "inbound_nodes": [[["res4e_branch2b", 0, 0, {}]]]}, {"name": "activation_36", "config": {"name": "activation_36", "activation": "relu", "trainable": true}, "class_name": "Activation", "inbound_nodes": [[["bn4e_branch2b", 0, 0, {}]]]}, {"name": "res4e_branch2c", "config": {"bias_regularizer": null, "kernel_regularizer": null, "use_bias": true, "kernel_initializer": {"config": {"distribution": "uniform", "mode": "fan_avg", "scale": 1.0, "seed": null}, "class_name": "VarianceScaling"}, "kernel_constraint": null, "padding": "valid", "filters": 1024, "bias_constraint": null, "kernel_size": [1, 1], "bias_initializer": {"config": {}, "class_name": "Zeros"}, "strides": [1, 1], "name": "res4e_branch2c", "activation": "linear", "data_format": "channels_last", "activity_regularizer": null, "dilation_rate": [1, 1], "trainable": true}, "class_name": "Conv2D", "inbound_nodes": [[["activation_36", 0, 0, {}]]]}, {"name": "bn4e_branch2c", "config": {"beta_regularizer": null, "moving_variance_initializer": {"config": {}, "class_name": "Ones"}, "scale": true, "gamma_regularizer": null, "momentum": 0.99, "trainable": true, "beta_constraint": null, "name": "bn4e_branch2c", "gamma_initializer": {"config": {}, "class_name": "Ones"}, "axis": -1, "moving_mean_initializer": {"config": {}, "class_name": "Zeros"}, "epsilon": 0.001, "center": true, "beta_initializer": {"config": {}, "class_name": "Zeros"}, "gamma_constraint": null}, "class_name": "BatchNormalization", "inbound_nodes": [[["res4e_branch2c", 0, 0, {}]]]}, {"name": "merge_12", "config": {"name": "merge_12", "output_shape": null, "mode": "sum", "mode_type": "raw", "output_shape_type": "raw", "output_mask_type": "raw", "concat_axis": -1, "dot_axes": -1, "output_mask": null, "arguments": {}}, "class_name": "Merge", "inbound_nodes": [[["bn4e_branch2c", 0, 0, {"mask": [null, null]}], ["activation_34", 0, 0, {"mask": [null, null]}]]]}, {"name": "activation_37", "config": {"name": "activation_37", "activation": "relu", "trainable": true}, "class_name": "Activation", "inbound_nodes": [[["merge_12", 0, 0, {}]]]}, {"name": "res4f_branch2a", "config": {"bias_regularizer": null, "kernel_regularizer": null, "use_bias": true, "kernel_initializer": {"config": {"distribution": "uniform", "mode": "fan_avg", "scale": 1.0, "seed": null}, "class_name": "VarianceScaling"}, "kernel_constraint": null, "padding": "valid", "filters": 256, "bias_constraint": null, "kernel_size": [1, 1], "bias_initializer": {"config": {}, "class_name": "Zeros"}, "strides": [1, 1], "name": "res4f_branch2a", "activation": "linear", "data_format": "channels_last", "activity_regularizer": null, "dilation_rate": [1, 1], "trainable": true}, "class_name": "Conv2D", "inbound_nodes": [[["activation_37", 0, 0, {}]]]}, {"name": "bn4f_branch2a", "config": {"beta_regularizer": null, "moving_variance_initializer": {"config": {}, "class_name": "Ones"}, "scale": true, "gamma_regularizer": null, "momentum": 0.99, "trainable": true, "beta_constraint": null, "name": "bn4f_branch2a", "gamma_initializer": {"config": {}, "class_name": "Ones"}, "axis": -1, "moving_mean_initializer": {"config": {}, "class_name": "Zeros"}, "epsilon": 0.001, "center": true, "beta_initializer": {"config": {}, "class_name": "Zeros"}, "gamma_constraint": null}, "class_name": "BatchNormalization", "inbound_nodes": [[["res4f_branch2a", 0, 0, {}]]]}, {"name": "activation_38", "config": {"name": "activation_38", "activation": "relu", "trainable": true}, "class_name": "Activation", "inbound_nodes": [[["bn4f_branch2a", 0, 0, {}]]]}, {"name": "res4f_branch2b", "config": {"bias_regularizer": null, "kernel_regularizer": null, "use_bias": true, "kernel_initializer": {"config": {"distribution": "uniform", "mode": "fan_avg", "scale": 1.0, "seed": null}, "class_name": "VarianceScaling"}, "kernel_constraint": null, "padding": "same", "filters": 256, "bias_constraint": null, "kernel_size": [3, 3], "bias_initializer": {"config": {}, "class_name": "Zeros"}, "strides": [1, 1], "name": "res4f_branch2b", "activation": "linear", "data_format": "channels_last", "activity_regularizer": null, "dilation_rate": [1, 1], "trainable": true}, "class_name": "Conv2D", "inbound_nodes": [[["activation_38", 0, 0, {}]]]}, {"name": "bn4f_branch2b", "config": {"beta_regularizer": null, "moving_variance_initializer": {"config": {}, "class_name": "Ones"}, "scale": true, "gamma_regularizer": null, "momentum": 0.99, "trainable": true, "beta_constraint": null, "name": "bn4f_branch2b", "gamma_initializer": {"config": {}, "class_name": "Ones"}, "axis": -1, "moving_mean_initializer": {"config": {}, "class_name": "Zeros"}, "epsilon": 0.001, "center": true, "beta_initializer": {"config": {}, "class_name": "Zeros"}, "gamma_constraint": null}, "class_name": "BatchNormalization", "inbound_nodes": [[["res4f_branch2b", 0, 0, {}]]]}, {"name": "activation_39", "config": {"name": "activation_39", "activation": "relu", "trainable": true}, "class_name": "Activation", "inbound_nodes": [[["bn4f_branch2b", 0, 0, {}]]]}, {"name": "res4f_branch2c", "config": {"bias_regularizer": null, "kernel_regularizer": null, "use_bias": true, "kernel_initializer": {"config": {"distribution": "uniform", "mode": "fan_avg", "scale": 1.0, "seed": null}, "class_name": "VarianceScaling"}, "kernel_constraint": null, "padding": "valid", "filters": 1024, "bias_constraint": null, "kernel_size": [1, 1], "bias_initializer": {"config": {}, "class_name": "Zeros"}, "strides": [1, 1], "name": "res4f_branch2c", "activation": "linear", "data_format": "channels_last", "activity_regularizer": null, "dilation_rate": [1, 1], "trainable": true}, "class_name": "Conv2D", "inbound_nodes": [[["activation_39", 0, 0, {}]]]}, {"name": "bn4f_branch2c", "config": {"beta_regularizer": null, "moving_variance_initializer": {"config": {}, "class_name": "Ones"}, "scale": true, "gamma_regularizer": null, "momentum": 0.99, "trainable": true, "beta_constraint": null, "name": "bn4f_branch2c", "gamma_initializer": {"config": {}, "class_name": "Ones"}, "axis": -1, "moving_mean_initializer": {"config": {}, "class_name": "Zeros"}, "epsilon": 0.001, "center": true, "beta_initializer": {"config": {}, "class_name": "Zeros"}, "gamma_constraint": null}, "class_name": "BatchNormalization", "inbound_nodes": [[["res4f_branch2c", 0, 0, {}]]]}, {"name": "merge_13", "config": {"name": "merge_13", "output_shape": null, "mode": "sum", "mode_type": "raw", "output_shape_type": "raw", "output_mask_type": "raw", "concat_axis": -1, "dot_axes": -1, "output_mask": null, "arguments": {}}, "class_name": "Merge", "inbound_nodes": [[["bn4f_branch2c", 0, 0, {"mask": [null, null]}], ["activation_37", 0, 0, {"mask": [null, null]}]]]}, {"name": "activation_40", "config": {"name": "activation_40", "activation": "relu", "trainable": true}, "class_name": "Activation", "inbound_nodes": [[["merge_13", 0, 0, {}]]]}, {"name": "res5a_branch2a", "config": {"bias_regularizer": null, "kernel_regularizer": null, "use_bias": true, "kernel_initializer": {"config": {"distribution": "uniform", "mode": "fan_avg", "scale": 1.0, "seed": null}, "class_name": "VarianceScaling"}, "kernel_constraint": null, "padding": "valid", "filters": 512, "bias_constraint": null, "kernel_size": [1, 1], "bias_initializer": {"config": {}, "class_name": "Zeros"}, "strides": [2, 2], "name": "res5a_branch2a", "activation": "linear", "data_format": "channels_last", "activity_regularizer": null, "dilation_rate": [1, 1], "trainable": true}, "class_name": "Conv2D", "inbound_nodes": [[["activation_40", 0, 0, {}]]]}, {"name": "bn5a_branch2a", "config": {"beta_regularizer": null, "moving_variance_initializer": {"config": {}, "class_name": "Ones"}, "scale": true, "gamma_regularizer": null, "momentum": 0.99, "trainable": true, "beta_constraint": null, "name": "bn5a_branch2a", "gamma_initializer": {"config": {}, "class_name": "Ones"}, "axis": -1, "moving_mean_initializer": {"config": {}, "class_name": "Zeros"}, "epsilon": 0.001, "center": true, "beta_initializer": {"config": {}, "class_name": "Zeros"}, "gamma_constraint": null}, "class_name": "BatchNormalization", "inbound_nodes": [[["res5a_branch2a", 0, 0, {}]]]}, {"name": "activation_41", "config": {"name": "activation_41", "activation": "relu", "trainable": true}, "class_name": "Activation", "inbound_nodes": [[["bn5a_branch2a", 0, 0, {}]]]}, {"name": "res5a_branch2b", "config": {"bias_regularizer": null, "kernel_regularizer": null, "use_bias": true, "kernel_initializer": {"config": {"distribution": "uniform", "mode": "fan_avg", "scale": 1.0, "seed": null}, "class_name": "VarianceScaling"}, "kernel_constraint": null, "padding": "same", "filters": 512, "bias_constraint": null, "kernel_size": [3, 3], "bias_initializer": {"config": {}, "class_name": "Zeros"}, "strides": [1, 1], "name": "res5a_branch2b", "activation": "linear", "data_format": "channels_last", "activity_regularizer": null, "dilation_rate": [1, 1], "trainable": true}, "class_name": "Conv2D", "inbound_nodes": [[["activation_41", 0, 0, {}]]]}, {"name": "bn5a_branch2b", "config": {"beta_regularizer": null, "moving_variance_initializer": {"config": {}, "class_name": "Ones"}, "scale": true, "gamma_regularizer": null, "momentum": 0.99, "trainable": true, "beta_constraint": null, "name": "bn5a_branch2b", "gamma_initializer": {"config": {}, "class_name": "Ones"}, "axis": -1, "moving_mean_initializer": {"config": {}, "class_name": "Zeros"}, "epsilon": 0.001, "center": true, "beta_initializer": {"config": {}, "class_name": "Zeros"}, "gamma_constraint": null}, "class_name": "BatchNormalization", "inbound_nodes": [[["res5a_branch2b", 0, 0, {}]]]}, {"name": "activation_42", "config": {"name": "activation_42", "activation": "relu", "trainable": true}, "class_name": "Activation", "inbound_nodes": [[["bn5a_branch2b", 0, 0, {}]]]}, {"name": "res5a_branch2c", "config": {"bias_regularizer": null, "kernel_regularizer": null, "use_bias": true, "kernel_initializer": {"config": {"distribution": "uniform", "mode": "fan_avg", "scale": 1.0, "seed": null}, "class_name": "VarianceScaling"}, "kernel_constraint": null, "padding": "valid", "filters": 2048, "bias_constraint": null, "kernel_size": [1, 1], "bias_initializer": {"config": {}, "class_name": "Zeros"}, "strides": [1, 1], "name": "res5a_branch2c", "activation": "linear", "data_format": "channels_last", "activity_regularizer": null, "dilation_rate": [1, 1], "trainable": true}, "class_name": "Conv2D", "inbound_nodes": [[["activation_42", 0, 0, {}]]]}, {"name": "res5a_branch1", "config": {"bias_regularizer": null, "kernel_regularizer": null, "use_bias": true, "kernel_initializer": {"config": {"distribution": "uniform", "mode": "fan_avg", "scale": 1.0, "seed": null}, "class_name": "VarianceScaling"}, "kernel_constraint": null, "padding": "valid", "filters": 2048, "bias_constraint": null, "kernel_size": [1, 1], "bias_initializer": {"config": {}, "class_name": "Zeros"}, "strides": [2, 2], "name": "res5a_branch1", "activation": "linear", "data_format": "channels_last", "activity_regularizer": null, "dilation_rate": [1, 1], "trainable": true}, "class_name": "Conv2D", "inbound_nodes": [[["activation_40", 0, 0, {}]]]}, {"name": "bn5a_branch2c", "config": {"beta_regularizer": null, "moving_variance_initializer": {"config": {}, "class_name": "Ones"}, "scale": true, "gamma_regularizer": null, "momentum": 0.99, "trainable": true, "beta_constraint": null, "name": "bn5a_branch2c", "gamma_initializer": {"config": {}, "class_name": "Ones"}, "axis": -1, "moving_mean_initializer": {"config": {}, "class_name": "Zeros"}, "epsilon": 0.001, "center": true, "beta_initializer": {"config": {}, "class_name": "Zeros"}, "gamma_constraint": null}, "class_name": "BatchNormalization", "inbound_nodes": [[["res5a_branch2c", 0, 0, {}]]]}, {"name": "bn5a_branch1", "config": {"beta_regularizer": null, "moving_variance_initializer": {"config": {}, "class_name": "Ones"}, "scale": true, "gamma_regularizer": null, "momentum": 0.99, "trainable": true, "beta_constraint": null, "name": "bn5a_branch1", "gamma_initializer": {"config": {}, "class_name": "Ones"}, "axis": -1, "moving_mean_initializer": {"config": {}, "class_name": "Zeros"}, "epsilon": 0.001, "center": true, "beta_initializer": {"config": {}, "class_name": "Zeros"}, "gamma_constraint": null}, "class_name": "BatchNormalization", "inbound_nodes": [[["res5a_branch1", 0, 0, {}]]]}, {"name": "merge_14", "config": {"name": "merge_14", "output_shape": null, "mode": "sum", "mode_type": "raw", "output_shape_type": "raw", "output_mask_type": "raw", "concat_axis": -1, "dot_axes": -1, "output_mask": null, "arguments": {}}, "class_name": "Merge", "inbound_nodes": [[["bn5a_branch2c", 0, 0, {"mask": [null, null]}], ["bn5a_branch1", 0, 0, {"mask": [null, null]}]]]}, {"name": "activation_43", "config": {"name": "activation_43", "activation": "relu", "trainable": true}, "class_name": "Activation", "inbound_nodes": [[["merge_14", 0, 0, {}]]]}, {"name": "res5b_branch2a", "config": {"bias_regularizer": null, "kernel_regularizer": null, "use_bias": true, "kernel_initializer": {"config": {"distribution": "uniform", "mode": "fan_avg", "scale": 1.0, "seed": null}, "class_name": "VarianceScaling"}, "kernel_constraint": null, "padding": "valid", "filters": 512, "bias_constraint": null, "kernel_size": [1, 1], "bias_initializer": {"config": {}, "class_name": "Zeros"}, "strides": [1, 1], "name": "res5b_branch2a", "activation": "linear", "data_format": "channels_last", "activity_regularizer": null, "dilation_rate": [1, 1], "trainable": true}, "class_name": "Conv2D", "inbound_nodes": [[["activation_43", 0, 0, {}]]]}, {"name": "bn5b_branch2a", "config": {"beta_regularizer": null, "moving_variance_initializer": {"config": {}, "class_name": "Ones"}, "scale": true, "gamma_regularizer": null, "momentum": 0.99, "trainable": true, "beta_constraint": null, "name": "bn5b_branch2a", "gamma_initializer": {"config": {}, "class_name": "Ones"}, "axis": -1, "moving_mean_initializer": {"config": {}, "class_name": "Zeros"}, "epsilon": 0.001, "center": true, "beta_initializer": {"config": {}, "class_name": "Zeros"}, "gamma_constraint": null}, "class_name": "BatchNormalization", "inbound_nodes": [[["res5b_branch2a", 0, 0, {}]]]}, {"name": "activation_44", "config": {"name": "activation_44", "activation": "relu", "trainable": true}, "class_name": "Activation", "inbound_nodes": [[["bn5b_branch2a", 0, 0, {}]]]}, {"name": "res5b_branch2b", "config": {"bias_regularizer": null, "kernel_regularizer": null, "use_bias": true, "kernel_initializer": {"config": {"distribution": "uniform", "mode": "fan_avg", "scale": 1.0, "seed": null}, "class_name": "VarianceScaling"}, "kernel_constraint": null, "padding": "same", "filters": 512, "bias_constraint": null, "kernel_size": [3, 3], "bias_initializer": {"config": {}, "class_name": "Zeros"}, "strides": [1, 1], "name": "res5b_branch2b", "activation": "linear", "data_format": "channels_last", "activity_regularizer": null, "dilation_rate": [1, 1], "trainable": true}, "class_name": "Conv2D", "inbound_nodes": [[["activation_44", 0, 0, {}]]]}, {"name": "bn5b_branch2b", "config": {"beta_regularizer": null, "moving_variance_initializer": {"config": {}, "class_name": "Ones"}, "scale": true, "gamma_regularizer": null, "momentum": 0.99, "trainable": true, "beta_constraint": null, "name": "bn5b_branch2b", "gamma_initializer": {"config": {}, "class_name": "Ones"}, "axis": -1, "moving_mean_initializer": {"config": {}, "class_name": "Zeros"}, "epsilon": 0.001, "center": true, "beta_initializer": {"config": {}, "class_name": "Zeros"}, "gamma_constraint": null}, "class_name": "BatchNormalization", "inbound_nodes": [[["res5b_branch2b", 0, 0, {}]]]}, {"name": "activation_45", "config": {"name": "activation_45", "activation": "relu", "trainable": true}, "class_name": "Activation", "inbound_nodes": [[["bn5b_branch2b", 0, 0, {}]]]}, {"name": "res5b_branch2c", "config": {"bias_regularizer": null, "kernel_regularizer": null, "use_bias": true, "kernel_initializer": {"config": {"distribution": "uniform", "mode": "fan_avg", "scale": 1.0, "seed": null}, "class_name": "VarianceScaling"}, "kernel_constraint": null, "padding": "valid", "filters": 2048, "bias_constraint": null, "kernel_size": [1, 1], "bias_initializer": {"config": {}, "class_name": "Zeros"}, "strides": [1, 1], "name": "res5b_branch2c", "activation": "linear", "data_format": "channels_last", "activity_regularizer": null, "dilation_rate": [1, 1], "trainable": true}, "class_name": "Conv2D", "inbound_nodes": [[["activation_45", 0, 0, {}]]]}, {"name": "bn5b_branch2c", "config": {"beta_regularizer": null, "moving_variance_initializer": {"config": {}, "class_name": "Ones"}, "scale": true, "gamma_regularizer": null, "momentum": 0.99, "trainable": true, "beta_constraint": null, "name": "bn5b_branch2c", "gamma_initializer": {"config": {}, "class_name": "Ones"}, "axis": -1, "moving_mean_initializer": {"config": {}, "class_name": "Zeros"}, "epsilon": 0.001, "center": true, "beta_initializer": {"config": {}, "class_name": "Zeros"}, "gamma_constraint": null}, "class_name": "BatchNormalization", "inbound_nodes": [[["res5b_branch2c", 0, 0, {}]]]}, {"name": "merge_15", "config": {"name": "merge_15", "output_shape": null, "mode": "sum", "mode_type": "raw", "output_shape_type": "raw", "output_mask_type": "raw", "concat_axis": -1, "dot_axes": -1, "output_mask": null, "arguments": {}}, "class_name": "Merge", "inbound_nodes": [[["bn5b_branch2c", 0, 0, {"mask": [null, null]}], ["activation_43", 0, 0, {"mask": [null, null]}]]]}, {"name": "activation_46", "config": {"name": "activation_46", "activation": "relu", "trainable": true}, "class_name": "Activation", "inbound_nodes": [[["merge_15", 0, 0, {}]]]}, {"name": "res5c_branch2a", "config": {"bias_regularizer": null, "kernel_regularizer": null, "use_bias": true, "kernel_initializer": {"config": {"distribution": "uniform", "mode": "fan_avg", "scale": 1.0, "seed": null}, "class_name": "VarianceScaling"}, "kernel_constraint": null, "padding": "valid", "filters": 512, "bias_constraint": null, "kernel_size": [1, 1], "bias_initializer": {"config": {}, "class_name": "Zeros"}, "strides": [1, 1], "name": "res5c_branch2a", "activation": "linear", "data_format": "channels_last", "activity_regularizer": null, "dilation_rate": [1, 1], "trainable": true}, "class_name": "Conv2D", "inbound_nodes": [[["activation_46", 0, 0, {}]]]}, {"name": "bn5c_branch2a", "config": {"beta_regularizer": null, "moving_variance_initializer": {"config": {}, "class_name": "Ones"}, "scale": true, "gamma_regularizer": null, "momentum": 0.99, "trainable": true, "beta_constraint": null, "name": "bn5c_branch2a", "gamma_initializer": {"config": {}, "class_name": "Ones"}, "axis": -1, "moving_mean_initializer": {"config": {}, "class_name": "Zeros"}, "epsilon": 0.001, "center": true, "beta_initializer": {"config": {}, "class_name": "Zeros"}, "gamma_constraint": null}, "class_name": "BatchNormalization", "inbound_nodes": [[["res5c_branch2a", 0, 0, {}]]]}, {"name": "activation_47", "config": {"name": "activation_47", "activation": "relu", "trainable": true}, "class_name": "Activation", "inbound_nodes": [[["bn5c_branch2a", 0, 0, {}]]]}, {"name": "res5c_branch2b", "config": {"bias_regularizer": null, "kernel_regularizer": null, "use_bias": true, "kernel_initializer": {"config": {"distribution": "uniform", "mode": "fan_avg", "scale": 1.0, "seed": null}, "class_name": "VarianceScaling"}, "kernel_constraint": null, "padding": "same", "filters": 512, "bias_constraint": null, "kernel_size": [3, 3], "bias_initializer": {"config": {}, "class_name": "Zeros"}, "strides": [1, 1], "name": "res5c_branch2b", "activation": "linear", "data_format": "channels_last", "activity_regularizer": null, "dilation_rate": [1, 1], "trainable": true}, "class_name": "Conv2D", "inbound_nodes": [[["activation_47", 0, 0, {}]]]}, {"name": "bn5c_branch2b", "config": {"beta_regularizer": null, "moving_variance_initializer": {"config": {}, "class_name": "Ones"}, "scale": true, "gamma_regularizer": null, "momentum": 0.99, "trainable": true, "beta_constraint": null, "name": "bn5c_branch2b", "gamma_initializer": {"config": {}, "class_name": "Ones"}, "axis": -1, "moving_mean_initializer": {"config": {}, "class_name": "Zeros"}, "epsilon": 0.001, "center": true, "beta_initializer": {"config": {}, "class_name": "Zeros"}, "gamma_constraint": null}, "class_name": "BatchNormalization", "inbound_nodes": [[["res5c_branch2b", 0, 0, {}]]]}, {"name": "activation_48", "config": {"name": "activation_48", "activation": "relu", "trainable": true}, "class_name": "Activation", "inbound_nodes": [[["bn5c_branch2b", 0, 0, {}]]]}, {"name": "res5c_branch2c", "config": {"bias_regularizer": null, "kernel_regularizer": null, "use_bias": true, "kernel_initializer": {"config": {"distribution": "uniform", "mode": "fan_avg", "scale": 1.0, "seed": null}, "class_name": "VarianceScaling"}, "kernel_constraint": null, "padding": "valid", "filters": 2048, "bias_constraint": null, "kernel_size": [1, 1], "bias_initializer": {"config": {}, "class_name": "Zeros"}, "strides": [1, 1], "name": "res5c_branch2c", "activation": "linear", "data_format": "channels_last", "activity_regularizer": null, "dilation_rate": [1, 1], "trainable": true}, "class_name": "Conv2D", "inbound_nodes": [[["activation_48", 0, 0, {}]]]}, {"name": "bn5c_branch2c", "config": {"beta_regularizer": null, "moving_variance_initializer": {"config": {}, "class_name": "Ones"}, "scale": true, "gamma_regularizer": null, "momentum": 0.99, "trainable": true, "beta_constraint": null, "name": "bn5c_branch2c", "gamma_initializer": {"config": {}, "class_name": "Ones"}, "axis": -1, "moving_mean_initializer": {"config": {}, "class_name": "Zeros"}, "epsilon": 0.001, "center": true, "beta_initializer": {"config": {}, "class_name": "Zeros"}, "gamma_constraint": null}, "class_name": "BatchNormalization", "inbound_nodes": [[["res5c_branch2c", 0, 0, {}]]]}, {"name": "merge_16", "config": {"name": "merge_16", "output_shape": null, "mode": "sum", "mode_type": "raw", "output_shape_type": "raw", "output_mask_type": "raw", "concat_axis": -1, "dot_axes": -1, "output_mask": null, "arguments": {}}, "class_name": "Merge", "inbound_nodes": [[["bn5c_branch2c", 0, 0, {"mask": [null, null]}], ["activation_46", 0, 0, {"mask": [null, null]}]]]}, {"name": "activation_49", "config": {"name": "activation_49", "activation": "relu", "trainable": true}, "class_name": "Activation", "inbound_nodes": [[["merge_16", 0, 0, {}]]]}, {"name": "avg_pool", "config": {"pool_size": [7, 7], "trainable": true, "name": "avg_pool", "data_format": "channels_last", "padding": "valid", "strides": [7, 7]}, "class_name": "AveragePooling2D", "inbound_nodes": [[["activation_49", 0, 0, {}]]]}, {"name": "flatten_2", "config": {"name": "flatten_2", "data_format": "channels_last", "trainable": true}, "class_name": "Flatten", "inbound_nodes": [[["avg_pool", 0, 0, {}]]]}, {"name": "fc10", "config": {"bias_regularizer": null, "kernel_regularizer": null, "use_bias": true, "kernel_initializer": {"config": {"distribution": "uniform", "mode": "fan_avg", "scale": 1.0, "seed": null}, "class_name": "VarianceScaling"}, "kernel_constraint": null, "activation": "softmax", "units": 27, "bias_constraint": null, "bias_initializer": {"config": {}, "class_name": "Zeros"}, "trainable": true, "name": "fc10", "activity_regularizer": null}, "class_name": "Dense", "inbound_nodes": [[["flatten_2", 0, 0, {}]]]}], "input_layers": [["input_1", 0, 0]], "output_layers": [["fc10", 0, 0]]}, "keras_version": "2.1.6", "class_name": "Model", "backend": "tensorflow"}